[32m[I 250309 19:48:14 train_MambaHSI_Plus:118][m ./RUNS/MambaHSI_Plus/Houston
[32m[I 250309 19:48:28 train_MambaHSI_Plus:172][m {'net_name': 'MambaHSI_Plus', 'dataset_index': 3, 'num_list': [30, 10], 'lr': 0.0003, 'seed_list': [0, 1, 2, 3, 4, 5, 6, 7, 8, 9]}
[32m[I 250309 19:48:28 train_MambaHSI_Plus:173][m MambaHSI_Plus(
      (patch_embedding): Sequential(
        (0): Conv2d(144, 128, kernel_size=(1, 1), stride=(1, 1))
        (1): GroupNorm(2, 128, eps=1e-05, affine=True)
        (2): SiLU()
      )
      (mamba): Sequential(
        (0): BothMamba(
          (softmax): Softmax(dim=0)
          (spa_mamba): SpaMamba(
            (softmax): Softmax(dim=0)
            (local_feature_extractor): Sequential(
              (0): Conv2d(128, 128, kernel_size=(3, 3), stride=(1, 1), padding=(1, 1), groups=2)
              (1): BatchNorm2d(128, eps=1e-05, momentum=0.1, affine=True, track_running_stats=True)
              (2): SiLU()
            )
            (mamba): Mamba(
              (in_proj): Linear(in_features=128, out_features=512, bias=False)
              (conv1d): Conv1d(256, 256, kernel_size=(4,), stride=(1,), padding=(3,), groups=256)
              (act): SiLU()
              (x_proj): Linear(in_features=256, out_features=40, bias=False)
              (dt_proj): Linear(in_features=8, out_features=256, bias=True)
              (out_proj): Linear(in_features=256, out_features=128, bias=False)
            )
            (mamba_row): Mamba(
              (in_proj): Linear(in_features=128, out_features=512, bias=False)
              (conv1d): Conv1d(256, 256, kernel_size=(4,), stride=(1,), padding=(3,), groups=256)
              (act): SiLU()
              (x_proj): Linear(in_features=256, out_features=40, bias=False)
              (dt_proj): Linear(in_features=8, out_features=256, bias=True)
              (out_proj): Linear(in_features=256, out_features=128, bias=False)
            )
            (mamba_col): Mamba(
              (in_proj): Linear(in_features=128, out_features=512, bias=False)
              (conv1d): Conv1d(256, 256, kernel_size=(4,), stride=(1,), padding=(3,), groups=256)
              (act): SiLU()
              (x_proj): Linear(in_features=256, out_features=40, bias=False)
              (dt_proj): Linear(in_features=8, out_features=256, bias=True)
              (out_proj): Linear(in_features=256, out_features=128, bias=False)
            )
            (eca): ECALayer(
              (avg_pool): AdaptiveAvgPool2d(output_size=1)
              (mamba): Mamba(
                (in_proj): Linear(in_features=128, out_features=512, bias=False)
                (conv1d): Conv1d(256, 256, kernel_size=(4,), stride=(1,), padding=(3,), groups=256)
                (act): SiLU()
                (x_proj): Linear(in_features=256, out_features=40, bias=False)
                (dt_proj): Linear(in_features=8, out_features=256, bias=True)
                (out_proj): Linear(in_features=256, out_features=128, bias=False)
              )
            )
            (fusion): Conv2d(256, 128, kernel_size=(1, 1), stride=(1, 1))
            (proj): Sequential(
              (0): GroupNorm(2, 128, eps=1e-05, affine=True)
              (1): SiLU()
            )
          )
          (spe_mamba): SpeMamba(
            (softmax): Softmax(dim=0)
            (mamba): Mamba(
              (in_proj): Linear(in_features=32, out_features=128, bias=False)
              (conv1d): Conv1d(64, 64, kernel_size=(4,), stride=(1,), padding=(3,), groups=64)
              (act): SiLU()
              (x_proj): Linear(in_features=64, out_features=34, bias=False)
              (dt_proj): Linear(in_features=2, out_features=64, bias=True)
              (out_proj): Linear(in_features=64, out_features=32, bias=False)
            )
            (mamba_row): Mamba(
              (in_proj): Linear(in_features=32, out_features=128, bias=False)
              (conv1d): Conv1d(64, 64, kernel_size=(4,), stride=(1,), padding=(3,), groups=64)
              (act): SiLU()
              (x_proj): Linear(in_features=64, out_features=34, bias=False)
              (dt_proj): Linear(in_features=2, out_features=64, bias=True)
              (out_proj): Linear(in_features=64, out_features=32, bias=False)
            )
            (mamba_col): Mamba(
              (in_proj): Linear(in_features=32, out_features=128, bias=False)
              (conv1d): Conv1d(64, 64, kernel_size=(4,), stride=(1,), padding=(3,), groups=64)
              (act): SiLU()
              (x_proj): Linear(in_features=64, out_features=34, bias=False)
              (dt_proj): Linear(in_features=2, out_features=64, bias=True)
              (out_proj): Linear(in_features=64, out_features=32, bias=False)
            )
            (eca): ECALayer(
              (avg_pool): AdaptiveAvgPool2d(output_size=1)
              (mamba): Mamba(
                (in_proj): Linear(in_features=128, out_features=512, bias=False)
                (conv1d): Conv1d(256, 256, kernel_size=(4,), stride=(1,), padding=(3,), groups=256)
                (act): SiLU()
                (x_proj): Linear(in_features=256, out_features=40, bias=False)
                (dt_proj): Linear(in_features=8, out_features=256, bias=True)
                (out_proj): Linear(in_features=256, out_features=128, bias=False)
              )
            )
            (fusion): Conv2d(256, 128, kernel_size=(1, 1), stride=(1, 1))
            (proj): Sequential(
              (0): GroupNorm(2, 128, eps=1e-05, affine=True)
              (1): SiLU()
            )
          )
        )
        (1): AvgPool2d(kernel_size=2, stride=2, padding=0)
        (2): BothMamba(
          (softmax): Softmax(dim=0)
          (spa_mamba): SpaMamba(
            (softmax): Softmax(dim=0)
            (local_feature_extractor): Sequential(
              (0): Conv2d(128, 128, kernel_size=(3, 3), stride=(1, 1), padding=(1, 1), groups=2)
              (1): BatchNorm2d(128, eps=1e-05, momentum=0.1, affine=True, track_running_stats=True)
              (2): SiLU()
            )
            (mamba): Mamba(
              (in_proj): Linear(in_features=128, out_features=512, bias=False)
              (conv1d): Conv1d(256, 256, kernel_size=(4,), stride=(1,), padding=(3,), groups=256)
              (act): SiLU()
              (x_proj): Linear(in_features=256, out_features=40, bias=False)
              (dt_proj): Linear(in_features=8, out_features=256, bias=True)
              (out_proj): Linear(in_features=256, out_features=128, bias=False)
            )
            (mamba_row): Mamba(
              (in_proj): Linear(in_features=128, out_features=512, bias=False)
              (conv1d): Conv1d(256, 256, kernel_size=(4,), stride=(1,), padding=(3,), groups=256)
              (act): SiLU()
              (x_proj): Linear(in_features=256, out_features=40, bias=False)
              (dt_proj): Linear(in_features=8, out_features=256, bias=True)
              (out_proj): Linear(in_features=256, out_features=128, bias=False)
            )
            (mamba_col): Mamba(
              (in_proj): Linear(in_features=128, out_features=512, bias=False)
              (conv1d): Conv1d(256, 256, kernel_size=(4,), stride=(1,), padding=(3,), groups=256)
              (act): SiLU()
              (x_proj): Linear(in_features=256, out_features=40, bias=False)
              (dt_proj): Linear(in_features=8, out_features=256, bias=True)
              (out_proj): Linear(in_features=256, out_features=128, bias=False)
            )
            (eca): ECALayer(
              (avg_pool): AdaptiveAvgPool2d(output_size=1)
              (mamba): Mamba(
                (in_proj): Linear(in_features=128, out_features=512, bias=False)
                (conv1d): Conv1d(256, 256, kernel_size=(4,), stride=(1,), padding=(3,), groups=256)
                (act): SiLU()
                (x_proj): Linear(in_features=256, out_features=40, bias=False)
                (dt_proj): Linear(in_features=8, out_features=256, bias=True)
                (out_proj): Linear(in_features=256, out_features=128, bias=False)
              )
            )
            (fusion): Conv2d(256, 128, kernel_size=(1, 1), stride=(1, 1))
            (proj): Sequential(
              (0): GroupNorm(2, 128, eps=1e-05, affine=True)
              (1): SiLU()
            )
          )
          (spe_mamba): SpeMamba(
            (softmax): Softmax(dim=0)
            (mamba): Mamba(
              (in_proj): Linear(in_features=32, out_features=128, bias=False)
              (conv1d): Conv1d(64, 64, kernel_size=(4,), stride=(1,), padding=(3,), groups=64)
              (act): SiLU()
              (x_proj): Linear(in_features=64, out_features=34, bias=False)
              (dt_proj): Linear(in_features=2, out_features=64, bias=True)
              (out_proj): Linear(in_features=64, out_features=32, bias=False)
            )
            (mamba_row): Mamba(
              (in_proj): Linear(in_features=32, out_features=128, bias=False)
              (conv1d): Conv1d(64, 64, kernel_size=(4,), stride=(1,), padding=(3,), groups=64)
              (act): SiLU()
              (x_proj): Linear(in_features=64, out_features=34, bias=False)
              (dt_proj): Linear(in_features=2, out_features=64, bias=True)
              (out_proj): Linear(in_features=64, out_features=32, bias=False)
            )
            (mamba_col): Mamba(
              (in_proj): Linear(in_features=32, out_features=128, bias=False)
              (conv1d): Conv1d(64, 64, kernel_size=(4,), stride=(1,), padding=(3,), groups=64)
              (act): SiLU()
              (x_proj): Linear(in_features=64, out_features=34, bias=False)
              (dt_proj): Linear(in_features=2, out_features=64, bias=True)
              (out_proj): Linear(in_features=64, out_features=32, bias=False)
            )
            (eca): ECALayer(
              (avg_pool): AdaptiveAvgPool2d(output_size=1)
              (mamba): Mamba(
                (in_proj): Linear(in_features=128, out_features=512, bias=False)
                (conv1d): Conv1d(256, 256, kernel_size=(4,), stride=(1,), padding=(3,), groups=256)
                (act): SiLU()
                (x_proj): Linear(in_features=256, out_features=40, bias=False)
                (dt_proj): Linear(in_features=8, out_features=256, bias=True)
                (out_proj): Linear(in_features=256, out_features=128, bias=False)
              )
            )
            (fusion): Conv2d(256, 128, kernel_size=(1, 1), stride=(1, 1))
            (proj): Sequential(
              (0): GroupNorm(2, 128, eps=1e-05, affine=True)
              (1): SiLU()
            )
          )
        )
        (3): AvgPool2d(kernel_size=2, stride=2, padding=0)
        (4): BothMamba(
          (softmax): Softmax(dim=0)
          (spa_mamba): SpaMamba(
            (softmax): Softmax(dim=0)
            (local_feature_extractor): Sequential(
              (0): Conv2d(128, 128, kernel_size=(3, 3), stride=(1, 1), padding=(1, 1), groups=2)
              (1): BatchNorm2d(128, eps=1e-05, momentum=0.1, affine=True, track_running_stats=True)
              (2): SiLU()
            )
            (mamba): Mamba(
              (in_proj): Linear(in_features=128, out_features=512, bias=False)
              (conv1d): Conv1d(256, 256, kernel_size=(4,), stride=(1,), padding=(3,), groups=256)
              (act): SiLU()
              (x_proj): Linear(in_features=256, out_features=40, bias=False)
              (dt_proj): Linear(in_features=8, out_features=256, bias=True)
              (out_proj): Linear(in_features=256, out_features=128, bias=False)
            )
            (mamba_row): Mamba(
              (in_proj): Linear(in_features=128, out_features=512, bias=False)
              (conv1d): Conv1d(256, 256, kernel_size=(4,), stride=(1,), padding=(3,), groups=256)
              (act): SiLU()
              (x_proj): Linear(in_features=256, out_features=40, bias=False)
              (dt_proj): Linear(in_features=8, out_features=256, bias=True)
              (out_proj): Linear(in_features=256, out_features=128, bias=False)
            )
            (mamba_col): Mamba(
              (in_proj): Linear(in_features=128, out_features=512, bias=False)
              (conv1d): Conv1d(256, 256, kernel_size=(4,), stride=(1,), padding=(3,), groups=256)
              (act): SiLU()
              (x_proj): Linear(in_features=256, out_features=40, bias=False)
              (dt_proj): Linear(in_features=8, out_features=256, bias=True)
              (out_proj): Linear(in_features=256, out_features=128, bias=False)
            )
            (eca): ECALayer(
              (avg_pool): AdaptiveAvgPool2d(output_size=1)
              (mamba): Mamba(
                (in_proj): Linear(in_features=128, out_features=512, bias=False)
                (conv1d): Conv1d(256, 256, kernel_size=(4,), stride=(1,), padding=(3,), groups=256)
                (act): SiLU()
                (x_proj): Linear(in_features=256, out_features=40, bias=False)
                (dt_proj): Linear(in_features=8, out_features=256, bias=True)
                (out_proj): Linear(in_features=256, out_features=128, bias=False)
              )
            )
            (fusion): Conv2d(256, 128, kernel_size=(1, 1), stride=(1, 1))
            (proj): Sequential(
              (0): GroupNorm(2, 128, eps=1e-05, affine=True)
              (1): SiLU()
            )
          )
          (spe_mamba): SpeMamba(
            (softmax): Softmax(dim=0)
            (mamba): Mamba(
              (in_proj): Linear(in_features=32, out_features=128, bias=False)
              (conv1d): Conv1d(64, 64, kernel_size=(4,), stride=(1,), padding=(3,), groups=64)
              (act): SiLU()
              (x_proj): Linear(in_features=64, out_features=34, bias=False)
              (dt_proj): Linear(in_features=2, out_features=64, bias=True)
              (out_proj): Linear(in_features=64, out_features=32, bias=False)
            )
            (mamba_row): Mamba(
              (in_proj): Linear(in_features=32, out_features=128, bias=False)
              (conv1d): Conv1d(64, 64, kernel_size=(4,), stride=(1,), padding=(3,), groups=64)
              (act): SiLU()
              (x_proj): Linear(in_features=64, out_features=34, bias=False)
              (dt_proj): Linear(in_features=2, out_features=64, bias=True)
              (out_proj): Linear(in_features=64, out_features=32, bias=False)
            )
            (mamba_col): Mamba(
              (in_proj): Linear(in_features=32, out_features=128, bias=False)
              (conv1d): Conv1d(64, 64, kernel_size=(4,), stride=(1,), padding=(3,), groups=64)
              (act): SiLU()
              (x_proj): Linear(in_features=64, out_features=34, bias=False)
              (dt_proj): Linear(in_features=2, out_features=64, bias=True)
              (out_proj): Linear(in_features=64, out_features=32, bias=False)
            )
            (eca): ECALayer(
              (avg_pool): AdaptiveAvgPool2d(output_size=1)
              (mamba): Mamba(
                (in_proj): Linear(in_features=128, out_features=512, bias=False)
                (conv1d): Conv1d(256, 256, kernel_size=(4,), stride=(1,), padding=(3,), groups=256)
                (act): SiLU()
                (x_proj): Linear(in_features=256, out_features=40, bias=False)
                (dt_proj): Linear(in_features=8, out_features=256, bias=True)
                (out_proj): Linear(in_features=256, out_features=128, bias=False)
              )
            )
            (fusion): Conv2d(256, 128, kernel_size=(1, 1), stride=(1, 1))
            (proj): Sequential(
              (0): GroupNorm(2, 128, eps=1e-05, affine=True)
              (1): SiLU()
            )
          )
        )
      )
      (cls_head): Sequential(
        (0): Conv2d(128, 128, kernel_size=(3, 3), stride=(1, 1), padding=(1, 1))
        (1): GroupNorm(2, 128, eps=1e-05, affine=True)
        (2): SiLU()
        (3): Conv2d(128, 15, kernel_size=(1, 1), stride=(1, 1))
      )
    )
[32m[I 250309 19:48:35 train_MambaHSI_Plus:201][m para:2.43 M
    ,flops:457.03 GFLOPS
[32m[I 250309 19:48:40 train_MambaHSI_Plus:235][m Name:Houston|Seed:0|Iter:0|loss:5.517515182495117
[32m[I 250309 19:48:42 train_MambaHSI_Plus:318][m Evaluate 0|OA:0.15333333333333332|MACC:0.15333333333333335|Kappa:0.09285714285714285|MIOU:0.04924540112777901|IOU:[0.16326531 0.         0.         0.         0.21276596 0.
…
